{"format": "torch", "nodes": [{"name": "transformer", "id": 139744431540936, "class_name": "GPT2Model(\n  (wte): Embedding(50257, 768)\n  (wpe): Embedding(1024, 768)\n  (drop): Dropout(p=0.1, inplace=False)\n  (h): ModuleList(\n    (0): Block(\n      (ln_1): LayerNorm((768,), eps=1e-05, elementwise_affine=True)\n      (attn): Attention(\n        (c_attn): Conv1D()\n        (c_proj): Conv1D()\n        (attn_dropout): Dropout(p=0.1, inplace=False)\n        (resid_dropout): Dropout(p=0.1, inplace=False)\n      )\n      (ln_2): LayerNorm((768,), eps=1e-05, elementwise_affine=True)\n      (mlp): MLP(\n        (c_fc): Conv1D()\n        (c_proj): Conv1D()\n        (dropout): Dropout(p=0.1, inplace=False)\n      )\n    )\n    (1): Block(\n      (ln_1): LayerNorm((768,), eps=1e-05, elementwise_affine=True)\n      (attn): Attention(\n        (c_attn): Conv1D()\n        (c_proj): Conv1D()\n        (attn_dropout): Dropout(p=0.1, inplace=False)\n        (resid_dropout): Dropout(p=0.1, inplace=False)\n      )\n      (ln_2): LayerNorm((768,), eps=1e-05, elementwise_affine=True)\n      (mlp): MLP(\n        (c_fc): Conv1D()\n        (c_proj): Conv1D()\n        (dropout): Dropout(p=0.1, inplace=False)\n      )\n    )\n    (2): Block(\n      (ln_1): LayerNorm((768,), eps=1e-05, elementwise_affine=True)\n      (attn): Attention(\n        (c_attn): Conv1D()\n        (c_proj): Conv1D()\n        (attn_dropout): Dropout(p=0.1, inplace=False)\n        (resid_dropout): Dropout(p=0.1, inplace=False)\n      )\n      (ln_2): LayerNorm((768,), eps=1e-05, elementwise_affine=True)\n      (mlp): MLP(\n        (c_fc): Conv1D()\n        (c_proj): Conv1D()\n        (dropout): Dropout(p=0.1, inplace=False)\n      )\n    )\n    (3): Block(\n      (ln_1): LayerNorm((768,), eps=1e-05, elementwise_affine=True)\n      (attn): Attention(\n        (c_attn): Conv1D()\n        (c_proj): Conv1D()\n        (attn_dropout): Dropout(p=0.1, inplace=False)\n        (resid_dropout): Dropout(p=0.1, inplace=False)\n      )\n      (ln_2): LayerNorm((768,), eps=1e-05, elementwise_affine=True)\n      (mlp): MLP(\n        (c_fc): Conv1D()\n        (c_proj): Conv1D()\n        (dropout): Dropout(p=0.1, inplace=False)\n      )\n    )\n    (4): Block(\n      (ln_1): LayerNorm((768,), eps=1e-05, elementwise_affine=True)\n      (attn): Attention(\n        (c_attn): Conv1D()\n        (c_proj): Conv1D()\n        (attn_dropout): Dropout(p=0.1, inplace=False)\n        (resid_dropout): Dropout(p=0.1, inplace=False)\n      )\n      (ln_2): LayerNorm((768,), eps=1e-05, elementwise_affine=True)\n      (mlp): MLP(\n        (c_fc): Conv1D()\n        (c_proj): Conv1D()\n        (dropout): Dropout(p=0.1, inplace=False)\n      )\n    )\n    (5): Block(\n      (ln_1): LayerNorm((768,), eps=1e-05, elementwise_affine=True)\n      (attn): Attention(\n        (c_attn): Conv1D()\n        (c_proj): Conv1D()\n        (attn_dropout): Dropout(p=0.1, inplace=False)\n        (resid_dropout): Dropout(p=0.1, inplace=False)\n      )\n      (ln_2): LayerNorm((768,), eps=1e-05, elementwise_affine=True)\n      (mlp): MLP(\n        (c_fc): Conv1D()\n        (c_proj): Conv1D()\n        (dropout): Dropout(p=0.1, inplace=False)\n      )\n    )\n    (6): Block(\n      (ln_1): LayerNorm((768,), eps=1e-05, elementwise_affine=True)\n      (attn): Attention(\n        (c_attn): Conv1D()\n        (c_proj): Conv1D()\n        (attn_dropout): Dropout(p=0.1, inplace=False)\n        (resid_dropout): Dropout(p=0.1, inplace=False)\n      )\n      (ln_2): LayerNorm((768,), eps=1e-05, elementwise_affine=True)\n      (mlp): MLP(\n        (c_fc): Conv1D()\n        (c_proj): Conv1D()\n        (dropout): Dropout(p=0.1, inplace=False)\n      )\n    )\n    (7): Block(\n      (ln_1): LayerNorm((768,), eps=1e-05, elementwise_affine=True)\n      (attn): Attention(\n        (c_attn): Conv1D()\n        (c_proj): Conv1D()\n        (attn_dropout): Dropout(p=0.1, inplace=False)\n        (resid_dropout): Dropout(p=0.1, inplace=False)\n      )\n      (ln_2): LayerNorm((768,), eps=1e-05, elementwise_affine=True)\n      (mlp): MLP(\n        (c_fc): Conv1D()\n        (c_proj): Conv1D()\n        (dropout): Dropout(p=0.1, inplace=False)\n      )\n    )\n    (8): Block(\n      (ln_1): LayerNorm((768,), eps=1e-05, elementwise_affine=True)\n      (attn): Attention(\n        (c_attn): Conv1D()\n        (c_proj): Conv1D()\n        (attn_dropout): Dropout(p=0.1, inplace=False)\n        (resid_dropout): Dropout(p=0.1, inplace=False)\n      )\n      (ln_2): LayerNorm((768,), eps=1e-05, elementwise_affine=True)\n      (mlp): MLP(\n        (c_fc): Conv1D()\n        (c_proj): Conv1D()\n        (dropout): Dropout(p=0.1, inplace=False)\n      )\n    )\n    (9): Block(\n      (ln_1): LayerNorm((768,), eps=1e-05, elementwise_affine=True)\n      (attn): Attention(\n        (c_attn): Conv1D()\n        (c_proj): Conv1D()\n        (attn_dropout): Dropout(p=0.1, inplace=False)\n        (resid_dropout): Dropout(p=0.1, inplace=False)\n      )\n      (ln_2): LayerNorm((768,), eps=1e-05, elementwise_affine=True)\n      (mlp): MLP(\n        (c_fc): Conv1D()\n        (c_proj): Conv1D()\n        (dropout): Dropout(p=0.1, inplace=False)\n      )\n    )\n    (10): Block(\n      (ln_1): LayerNorm((768,), eps=1e-05, elementwise_affine=True)\n      (attn): Attention(\n        (c_attn): Conv1D()\n        (c_proj): Conv1D()\n        (attn_dropout): Dropout(p=0.1, inplace=False)\n        (resid_dropout): Dropout(p=0.1, inplace=False)\n      )\n      (ln_2): LayerNorm((768,), eps=1e-05, elementwise_affine=True)\n      (mlp): MLP(\n        (c_fc): Conv1D()\n        (c_proj): Conv1D()\n        (dropout): Dropout(p=0.1, inplace=False)\n      )\n    )\n    (11): Block(\n      (ln_1): LayerNorm((768,), eps=1e-05, elementwise_affine=True)\n      (attn): Attention(\n        (c_attn): Conv1D()\n        (c_proj): Conv1D()\n        (attn_dropout): Dropout(p=0.1, inplace=False)\n        (resid_dropout): Dropout(p=0.1, inplace=False)\n      )\n      (ln_2): LayerNorm((768,), eps=1e-05, elementwise_affine=True)\n      (mlp): MLP(\n        (c_fc): Conv1D()\n        (c_proj): Conv1D()\n        (dropout): Dropout(p=0.1, inplace=False)\n      )\n    )\n  )\n  (ln_f): LayerNorm((768,), eps=1e-05, elementwise_affine=True)\n)", "parameters": [["wte.weight", [50257, 768]], ["wpe.weight", [1024, 768]], ["h.0.ln_1.weight", [768]], ["h.0.ln_1.bias", [768]], ["h.0.attn.c_attn.weight", [768, 2304]], ["h.0.attn.c_attn.bias", [2304]], ["h.0.attn.c_proj.weight", [768, 768]], ["h.0.attn.c_proj.bias", [768]], ["h.0.ln_2.weight", [768]], ["h.0.ln_2.bias", [768]], ["h.0.mlp.c_fc.weight
…
